MachineLearning/Intro_SnakeGame/model/model.pth (torch, 32147 bytes, 4 tensors)

linear1.weight f4 [512, 11]
000000 88 e4 21 be 58 78 3d 3e e8 25 98 be 6a c7 d4 bd
       -0.15809834 0.18502939 -0.2971642 -0.10389598
000010 91 ef 76 be a6 94 8c 3e 8e ba 1e 3e 4a af 6d 3e
       -0.24114825 0.2745716 0.15500852 0.23211399
000020 88 a1 71 3e 46 ae 87 be ea 0a 1f bc bc 71 04 3e
       0.23596776 -0.26500148 -0.009707192 0.12934011
000030 40 51 b9 3d a0 d2 fd 3c b5 cf 33 be 09 b3 61 3e
       0.090487 0.030984223 -0.17559703 0.22040953
000040 5a 93 8d be 6e ee 6e 3e fc 67 44 3e 88 02 a8 bd
       -0.27651483 0.23333141 0.19180292 -0.08203608
000050 50 94 77 3e 77 24 47 be e6 39 b9 bd 40 30 4a 3e
       0.2417767 -0.19447504 -0.090442464 0.19744968
000060 0a 63 9f bd 95 0c 93 be eb f6 4f 3e e4 d5 b7 bd
       -0.07782562 -0.28720537 0.20309035 -0.08976343
000070 2f 6f 7f 3e 76 40 4f be b1 98 b1 bd a9 dc 98 3d
       0.24944757 -0.20239434 -0.08671702 0.074639626
000080 35 4c 1f be f8 ab 90 3e 5a 14 b6 bd 30 07 89 3c
       -0.15556414 0.28256202 -0.088906005 0.01672706
000090 42 75 0b 3e 52 97 55 3c e1 42 78 3e c2 ea 38 be
       0.13618949 0.013036566 0.24244262 -0.18058303
0000a0 77 60 01 be e6 d2 5f 3e 36 36 5c 3e e0 ec 80 be
       -0.12634455 0.21857795 0.21505055 -0.2518072
0000b0 dd 5b 7e be 84 fa 7f bd 48 6b 28 bd b2 9d 28 be
       -0.2483973 -0.06249477 -0.041117936 -0.16466406
0000c0 ba c6 e3 bd 2f 27 e7 3d 2e 21 72 bd de e7 a3 3e
       -0.111218885 0.112867706 -0.059113674 0.32012838
0000d0 12 a7 e2 3e 5b f9 b5 3d 17 4d ce 3d f3 96 90 3d
       0.4426809 0.088854514 0.100732975 0.07060041
0000e0 36 77 62 3e 76 b4 4f be 62 8b c6 bc e8 c1 54 3e
       0.22115788 -0.20283684 -0.024236385 0.20777094
0000f0 4a 18 71 3d cf 00 65 3e 8a f8 88 3e a1 ac 25 3e
       0.058861054 0.2236359 0.2675212 0.16179134
000100 68 e0 86 be 6b 5d 3c be 9c ad 97 be ce ac 6f 3d
       -0.26343083 -0.18395011 -0.2962464 0.05851441
000110 98 56 07 be e0 6d 2c bc 15 cc 84 3e c0 83 04 be
       -0.13216627 -0.010524243 0.25936952 -0.12940884
000120 f8 7d 56 3d 26 d4 67 3c b1 dd 74 bd e9 7c 9e bd
       0.052366227 0.014149701 -0.059781734 -0.077386685
000130 25 3d a5 bc 04 52 89 3e 96 8c 83 be ac ca 61 3e
       -0.020170758 0.26820385 -0.25693196 0.2204997
000140 b6 e9 43 3e c2 0f 7e be b3 ec f5 3d a6 98 8b 3d
       0.19132122 -0.24810699 0.120080374 0.06816225
000150 86 d1 b6 bd 5b 77 55 3e 16 d5 0e be 6b 5e cc 3c
       -0.08926682 0.20846312 -0.13948473 0.024947366
000160 82 0b 95 be 4a 65 49 ba 77 4b 53 be 64 ef 88 3d
       -0.29110342 -0.0007682635 -0.20634256 0.06686285
000170 38 4c 75 3d 5a cf 28 be 08 dd 5b 3c 6e 25 b3 bd
       0.05988714 -0.16485348 0.013419397 -0.087473735
000180 48 51 63 3e 31 27 42 be 8e 2d 92 3e 43 56 44 3e
       0.22198975 -0.18960263 0.2855038 0.19173531
000190 77 02 47 be 90 95 0b be e5 98 1f 3e d1 7b 61 be
       -0.19434534 -0.13631272 0.15585668 -0.22019888
0001a0 6b 4f 87 3e 11 b7 ab 3e 70 d6 81 3d a6 21 18 3e
       0.2642778 0.33538106 0.06339729 0.14856586
0001b0 61 12 a2 3e 11 13 1e be 0d 0b e3 3d f3 1c c5 bd
       0.31654647 -0.15436961 0.11086092 -0.09624662
0001c0 02 7d ff bd f2 c5 47 bc cc 8f 08 be 37 1f ad bd
       -0.12475015 -0.01219319 -0.13336104 -0.084532194
0001d0 40 6c 0c 3e 6d 1f 67 3e 0f e2 62 bd 13 50 77 be
       0.13713169 0.22570582 -0.055391368 -0.2415164
0001e0 06 70 24 be aa 9c 8e 3c cb 74 8c 3e 1c 6d 68 be
       -0.16058359 0.017408688 0.27432856 -0.22697872
0001f0 20 fd 8d be fd d8 52 be 9a b5 7c 3e f2 1a d7 3d
       -0.27732182 -0.20590587 0.2467865 0.10503186
000200 91 65 50 3e 6b 31 81 be ae d1 20 bd 4c 80 ce bb
       0.20351245 -0.25233015 -0.039262466 -0.0063019153
000210 f1 86 77 3d ba 6b da 3d 00 70 c1 3c 7c eb f3 bc
       0.060431425 0.106650785 0.023612976 -0.029775374
000220 8b 82 bf 3c 1c 07 9b bd 17 6c 07 be 84 d5 95 be
       0.023377677 -0.075697154 -0.13224827 -0.29264462
000230 ff 31 74 3b 03 81 82 be b2 8d 23 3d 95 af b5 3d
       0.0037261245 -0.25489053 0.039930053 0.0887138
000240 ea 84 d5 bd 00 7f 88 3e b7 ed e9 3d 54 f3 1b be
       -0.10425742 0.26659393 0.11422294 -0.15229541
000250 d1 d8 82 3e bc 5c 34 be de ba 97 3e 09 91 48 3e
       0.25556043 -0.176135 0.29634756 0.19586577
000260 39 f0 95 3e a1 76 9d 3e be d2 8d 3d c0 0f 2c bd
       0.29284838 0.3075457 0.069249615 -0.042007208
000270 2c f1 fb 3d 5d e7 26 3e 2d 52 5d be 38 f1 46 be
       0.12301859 0.16299196 -0.21613379 -0.19427955
000280 28 c0 fc 3d c9 f8 82 3e a2 21 cb bd f4 a9 00 be
       0.123413384 0.25580433 -0.09918524 -0.12564832
000290 2f b4 9c be ea dc 97 be d4 d6 ea bd d8 d8 6c 3e
       -0.3060622 -0.29660732 -0.114667565 0.23129594
0002a0 58 b1 52 bd ea 81 c8 bd dc 75 02 be d4 cc 22 3e
       -0.05143866 -0.09790404 -0.12740272 0.15898448
0002b0 96 2c 14 be 79 07 c4 3e 49 c4 ad be c4 52 ec bd
       -0.14470133 0.3828695 -0.33938816 -0.11539224
0002c0 2d f8 85 be b9 65 fd 3c 80 71 58 bd f0 71 92 3e
       -0.26165906 0.030932294 -0.052842617 0.28602552
0002d0 3c fe 96 3e 69 8a d8 3d c0 e4 34 be 21 ce 95 3e
       0.2949084 0.10573275 -0.17665386 0.29258826
0002e0 d6 b4 82 3e 28 46 a1 be 49 9b 65 be 42 9f 83 3b
       0.25528592 -0.31498837 -0.22422518 0.0040167877
0002f0 33 97 94 be 50 13 96 bd ac da 1d 3e 00 8a 10 be
       -0.29021606 -0.07327902 0.15415448 -0.14115143
000300 ae 8d 19 be 96 58 8c 3e 63 a5 04 3d c2 68 cd 3e
       -0.14995453 0.27411336 0.032384288 0.40118986
000310 02 4d af bc ed ce 3e 3e 8d 7c 86 bd 66 6c 6d be
       -0.021399025 0.18633623 -0.06566725 -0.23185882
000320 5a f6 3c be 90 2e f1 3c d6 a7 09 be fe 46 cf bd
       -0.1845335 0.029441148 -0.1344293 -0.101209626
000330 72 92 33 3d be 80 aa 3d 9a cb 6b be 86 b1 c0 3d
       0.043840833 0.08325337 -0.23026887 0.0940886
000340 a5 70 51 3e 0a 1c 52 3e c0 8a 34 3d ad 62 7b be
       0.20453127 0.20518509 0.044077635 -0.2454936
000350 30 0e b1 3c f2 b5 07 be 57 41 29 be da c2 7d 3d
       0.02161321 -0.13253 -0.16528831 0.061953403
000360 e6 a2 4c be a7 34 8a be 06 6e 56 3e d8 bc 47 bd
       -0.19984016 -0.26993296 0.20940408 -0.04876408
000370 10 42 e0 bd 92 95 be bd 00 2b 22 3e 1a 6e 6b be
       -0.109501004 -0.09305872 0.15836716 -0.22991219
000380 ed a6 03 3e a4 43 6d be cf 4d c2 bd 54 0f 00 3e
       0.12856646 -0.23170334 -0.09487497 0.12505847
000390 9e b1 91 be 53 63 4d 3d c2 38 94 bb 85 df 49 bd
       -0.28455824 0.05014355 -0.0045233676 -0.04928543
0003a0 fc d4 3c be 9d 16 65 be 65 d6 23 3c 81 c6 0c be
       -0.18440622 -0.22371908 0.009999846 -0.13747598
0003b0 30 ea 3d be 16 6d 5b be 0f 64 67 3e 6f 76 7a be
       -0.18546367 -0.21428332 0.22596763 -0.24459241
0003c0 f5 fa f7 3b 88 35 10 3c a9 6e 62 bd 45 e6 ca bd
       0.007567758 0.008801825 -0.055281315 -0.09907202
0003d0 46 cb 77 be eb 44 53 be c5 f5 be 3d e0 b7 4b be
       -0.24198636 -0.20631759 0.093242206 -0.19894361
0003e0 54 33 6a 3e fd b4 79 3e 90 68 71 3e 89 b8 63 be
       0.22871143 0.24385448 0.23575044 -0.22238363
0003f0 38 8f 97 bd db 23 54 be 55 8b 03 3e 96 93 98 be
       -0.07400364 -0.20716803 0.1284612 -0.298001

linear1.bias f4 [512]
000000 c6 19 97 be ea 6a e5 3d 72 f7 b8 bd b3 64 18 be
       -0.2951185 0.11202033 -0.090315714 -0.14882164
000010 7a 9e 81 3e 3e fd 4b be d1 12 ee bd d0 ec 57 be
       0.2531622 -0.19920823 -0.11624683 -0.2108643
000020 9c 35 99 3e 10 01 ef 3e 28 1a b2 3d b4 0c 3e bc
       0.29923713 0.46680498 0.08696395 -0.011599708
000030 0c 74 95 3e b7 a0 c6 3d c3 c1 36 3e b2 11 34 3e
       0.291901 0.09698623 0.17847352 0.17584875
000040 9f 32 fe bd 84 9c 84 3e 8f 79 e4 bd 88 45 96 be
       -0.12411999 0.25900662 -0.11155998 -0.29349923
000050 82 0f ba bd e4 2c a8 3d 9e 09 98 bd 03 44 49 3d
       -0.09084989 0.08211687 -0.07423709 0.049137127
000060 68 4f e7 bd ce 2e 0b 3e ad 3f 0c bd f1 81 04 3e
       -0.112944424 0.13592073 -0.034240413 0.12940194
000070 4b 6d 1e 3c ab 30 24 3d ce 18 2d 3e 0f 50 29 bd
       0.009669612 0.040085476 0.16903993 -0.041336115
000080 5f ba a4 3d 9d da 52 3e aa 18 79 3e 12 0d bc 3e
       0.0804336 0.20591207 0.24325815 0.36728722
000090 8c c6 2e 3c 4f 55 74 3c 33 25 2b be ed 99 c2 3e
       0.010667454 0.014912917 -0.16713409 0.3800806
0000a0 6c 8b 85 be f6 6a a5 3e 90 63 c3 3d 1b bd 0a be
       -0.26082933 0.32308167 0.095404744 -0.135487
0000b0 67 05 7b 3e ef 3b 06 be 58 7b 9e 3b ad b6 9d 3c
       0.2451378 -0.131088 0.004836481 0.019252146
0000c0 ee 9a 0b be 98 0b 79 be a2 87 c2 3d 54 28 15 be
       -0.1363332 -0.24320829 0.09498526 -0.14566165
0000d0 43 da 3c be 47 16 5e 3e 04 44 80 3e 7e e6 14 3e
       -0.18442635 0.21688186 0.25051892 0.14541051
0000e0 ba 37 1c 3e 5c 88 ec 3c ca b6 bb bc dc 13 bf 3c
       0.15255633 0.028873615 -0.022914309 0.0233249
0000f0 b1 b7 f8 3c 58 78 af 3e 9f 36 94 3e 50 0e 77 3d
       0.030361028 0.34271502 0.28947923 0.060316384
000100 da 1f 7d 3d be 8a 1f be 6f 95 8c be 62 e8 de 3d
       0.061797954 -0.1558027 -0.2745776 0.10884167
000110 4c 89 9c 3c d8 b8 89 3e 9d d4 b2 3d ae ee 75 be
       0.019108437 0.26898837 0.08731959 -0.2401683
000120 9c 82 cd 3e 9f f5 87 be 0e 85 8f bd db 94 e9 3e
       0.4013871 -0.26554582 -0.070078 0.4562138
000130 bf 5d 50 3d a9 92 89 3e 7a f7 20 bd 18 49 39 3d
       0.050870653 0.26869705 -0.039298512 0.045235723
000140 9e 52 f8 bd e2 34 a0 be 5a af 3f be 86 95 de bd
       -0.12125133 -0.31290346 -0.18719235 -0.10868363
000150 9c 40 86 3d 79 97 9f bc 0b 09 b8 ba 27 53 8d 3e
       0.06555292 -0.019481407 -0.0014040781 0.27602503
000160 dd dc 43 be 9a 51 a8 bd 8a 18 e2 3d c8 89 0e be
       -0.19127221 -0.08218689 0.11039837 -0.13919747
000170 98 01 1a be d8 db db 3e 19 65 b0 bd 14 c5 06 3e
       -0.1503967 0.42941165 -0.08613033 0.13161117
000180 78 61 b6 3c 4d 83 78 be c3 15 c4 bd b2 d0 b2 3d
       0.022263274 -0.24268837 -0.09574463 0.08731212
000190 c3 63 81 be ac 91 16 bb 73 ff 3f 3d 9f 51 80 3d
       -0.25271425 -0.002297501 0.046874475 0.06265568
0001a0 71 22 c3 3e 9b 9d 25 3e b5 f5 18 3f b1 6f 94 3e
       0.38112214 0.16173403 0.5974992 0.28991464
0001b0 20 cd 40 be c4 b3 74 bc f0 3c 03 3e 52 98 d6 3c
       -0.18828249 -0.014935438 0.12816215 0.026195679
0001c0 a1 3d f0 bd 38 3a a5 3e 29 79 d9 3c 54 16 ba 3e
       -0.11730505 0.3227098 0.026547031 0.3634516
0001d0 8f 24 9c 3e 2f 3e 46 be de b4 d9 3d 90 ea 8d 3e
       0.30496642 -0.19359659 0.10630201 0.2771802
0001e0 77 e5 58 3e 23 f2 b5 3d ba 36 6d 3d ae 92 4b be
       0.21181284 0.088840745 0.05791352 -0.19880173
0001f0 c8 29 40 3c 02 06 8a bd 0b bb 16 3e 6d 88 64 be
       0.011728711 -0.06739427 0.14719789 -0.22317667
000200 35 04 f1 bd 87 e1 a3 3e a8 04 97 be 94 86 39 bd
       -0.117683806 0.32008 -0.2949574 -0.04529436
000210 18 8e 1d be 3e 13 2a bd 7c 9a 6c 3d 73 e8 c0 3d
       -0.15386236 -0.041522257 0.057764515 0.09419336
000220 09 1d 44 3e 38 28 27 be 0d e0 f6 bd 0d 60 9f 3e
       0.19151701 -0.16323936 -0.12054453 0.31127968
000230 06 3c ab bd 37 fc 8b 3e bf cc fd 3c 8e e9 73 be
       -0.08361058 0.27340862 0.03098142 -0.23819563
000240 75 b8 7f be ef 00 ed bb 32 db 48 3d 21 ce 8d 3c
       -0.24972709 -0.0072327773 0.049037166 0.017310204
000250 79 19 84 be f3 83 16 3d 3e f3 44 be 85 28 25 3e
       -0.25800684 0.03674693 -0.19233415 0.16128738
000260 66 97 5a be 77 cb 92 3d 78 d2 97 3e 94 e4 e6 3e
       -0.21346816 0.07167714 0.29652762 0.45096266
000270 f3 db a2 3e 11 23 69 3e 85 dd 7d be 68 44 a2 bc
       0.31808433 0.22767283 -0.24791534 -0.01980801
000280 a3 74 1b 3e df ed 1e be b3 d6 0d 3d de 79 15 3e
       0.15181212 -0.15520428 0.03462858 0.1459727
000290 e2 29 13 be 31 a2 15 be 83 4d d1 3e 0e 4c d9 3d
       -0.14371446 -0.14612652 0.4087945 0.106102094
0002a0 ce ae cc 3e 83 37 dc 3e 92 4c eb 3b 4e a3 b8 3e
       0.39977115 0.43011102 0.0071807588 0.36062092
0002b0 84 d8 77 be 7e 32 43 3e 69 74 1c 3e 68 45 e7 bc
       -0.24203688 0.1906223 0.15278782 -0.028231338
0002c0 c3 cf fd bc f4 c3 25 be ae 4b f8 3d 22 81 a3 3d
       -0.030982858 -0.16188031 0.1212381 0.079836145
0002d0 be 69 f0 3c ab b7 89 3d a7 5d 81 3e 9d 0d 92 bc
       0.029347297 0.06724485 0.25266764 -0.017828757
0002e0 08 65 4e be 60 91 10 3f 43 49 59 3e 02 94 7c 3d
       -0.20155728 0.56471825 0.21219353 0.06166459
0002f0 67 62 69 bd b4 f8 c4 3d 9a 79 86 3e 19 ec 3d 3e
       -0.05697861 0.09617749 0.2626465 0.18547095
000300 66 43 51 3e 38 63 d9 bd c3 34 92 3e 03 b0 18 3d
       0.20435867 -0.106146276 0.2855588 0.037277233
000310 a8 f9 c4 3e 56 4d a6 3e 58 c6 86 be 4a 3c 10 be
       0.38471723 0.32480878 -0.263232 -0.14085498
000320 a2 b0 a2 38 f6 e5 04 3f df f6 91 3e 53 3c 2d 3e
       7.7576624e-05 0.5191339 0.2850866 0.16917543
000330 65 d8 dd 3e 4c 2c b8 bd 60 d6 97 3e a1 1b 23 bd
       0.43329158 -0.08992824 0.29655743 -0.03982127
000340 b9 52 27 3d ea 77 94 bd ca 9b 7d 3e 0a 0a 0b bd
       0.040850375 -0.07249434 0.2476646 -0.03394512
000350 d1 dd 97 3c a0 c2 75 be 92 8b 18 be 78 5e e1 bd
       0.018538387 -0.24000025 -0.14896992 -0.110043466
000360 a4 02 ba 3d 80 d0 9a 3e 19 12 de 3e 7b 63 58 be
       0.09082535 0.30237198 0.43373182 -0.21131699
000370 8f 2b 1d 3e 84 80 a0 3d 82 95 b0 3e f6 bb a6 bb
       0.15348648 0.078370124 0.34489065 -0.0050883247
000380 79 37 03 bd c0 c1 6d 3e b3 7d 6c 3e cd a1 9a 3e
       -0.032035325 0.23218441 0.23094825 0.3020157
000390 d3 78 83 3d 21 07 87 be 45 38 53 3e 5b 6b 69 3c
       0.0641953 -0.26372626 0.20626934 0.014246787
0003a0 63 53 ab be a5 da 40 3e 2b d6 c0 bd 8d 13 00 3d
       -0.33462057 0.18833406 -0.09415849 0.031268645
0003b0 a2 1b b7 3d e8 81 cd 3e 6b 8c e5 bd b8 61 84 be
       0.089408174 0.40138173 -0.11208423 -0.25855803
0003c0 7a a3 97 3e ba 82 05 3f ae df 91 3e 69 35 09 be
       0.2961691 0.521526 0.28490967 -0.1339928
0003d0 db 11 db bd d7 23 b3 3d 22 89 f1 bd 6f b8 58 be
       -0.10696765 0.0874707 -0.11793734 -0.21164106
0003e0 5b 47 35 be 82 b8 83 3e e5 3a d9 3c b2 82 c8 3e
       -0.17703001 0.25726706 0.02651734 0.39162213
0003f0 aa a8 7f be e6 74 53 be 7e d2 83 3d d7 1b 18 3f
       -0.24966684 -0.20650062 0.064366326 0.5941748

linear2.weight f4 [3, 512]
000000 1b 36 93 bd 96 1c 3e ba 62 0b 6d 3d 3f cf 40 bb
       -0.07188054 -0.00072521844 0.057872184 -0.0029420403
000010 ea b1 72 bd 04 71 a9 bc c4 b2 da bc cc ef 13 3c
       -0.059251703 -0.020683773 -0.02669657 0.00902934
000020 5d f5 b4 bd 9e 83 38 bd 9b df 27 bd d5 e1 c1 3c
       -0.08835862 -0.045047395 -0.04098473 0.023667255
000030 fa 4c 54 bd 5c 93 3c bd 95 c1 cd bd d5 a4 05 be
       -0.051831223 -0.04603897 -0.100466885 -0.1305116
000040 6d cd 0f be 1d 5e 92 bd ca fa 09 bd 5f 49 83 bc
       -0.14043207 -0.07146857 -0.033686437 -0.016026197
000050 30 af 23 bd 33 04 f5 bb a8 01 a3 bd a3 c0 96 bd
       -0.039961994 -0.007477307 -0.079593 -0.07360961
000060 90 c5 b9 3c 41 c8 13 bc 71 6b 55 3d 05 7f e1 39
       0.022677213 -0.009019912 0.052104417 0.0004300998
000070 db 87 9e bc 2d 70 37 bd 45 aa d9 bd 0b 3d 40 3d
       -0.01935189 -0.044784714 -0.106281795 0.046933215
000080 32 94 06 bd 6c 4d 76 bd ff 34 5f bd 42 15 a5 bd
       -0.032856174 -0.06013243 -0.0544939 -0.08060695
000090 34 c8 19 bd 21 77 93 bc 7a 94 20 bd 9b 63 38 be
       -0.037544444 -0.018001141 -0.0392041 -0.18006746
0000a0 82 fc 26 bd 4f de 40 bd 5a e3 4a bd 00 d5 ee bc
       -0.040768154 -0.04708701 -0.049533226 -0.0291543
0000b0 d3 6c e4 bd 69 00 fc 3c 15 cb c1 bd 69 47 a3 bd
       -0.11153569 0.030761914 -0.09462563 -0.07972605
0000c0 e7 8f 1f be da c8 00 bd c5 43 6e bd a4 24 03 bb
       -0.15582238 -0.031441547 -0.0581701 -0.0020010853
0000d0 cc 0b a7 3c 9f 4f 2e bd 5f 6b 1a bd 65 b0 30 bd
       0.020391367 -0.0425564 -0.037700053 -0.043136973
0000e0 82 04 bf 3c b8 28 a0 3c 78 92 6e bd 43 35 9c 3c
       0.02331758 0.019550666 -0.058245152 0.019068366
0000f0 ec fb c9 bd d8 81 17 bc 4d d0 56 bc 6c f6 dd bc
       -0.098625034 -0.009247266 -0.013111186 -0.027095042
000100 25 f6 5a bd 7f bd 37 bd 13 ab 18 3d 7b dd 9d bc
       -0.053457398 -0.044858452 0.037272524 -0.01927065
000110 b1 9b a7 bd 76 98 41 bd 34 32 1d 3c bc 71 6c bc
       -0.08183993 -0.04726454 0.009594489 -0.014431413
000120 48 3d 86 bd 32 88 a6 ba 50 8c 02 bd 97 16 9f bd
       -0.06554657 -0.0012705384 -0.031872094 -0.077679805
000130 c8 d9 48 bd 1b 40 1d bd bb 91 82 3c 00 5d 2b bd
       -0.049035817 -0.038391214 0.01593863 -0.04183674
000140 7b a9 98 bd eb 4e a5 3c 2b c5 62 bb 9b 88 f6 bd
       -0.07454201 0.020179233 -0.0034602385 -0.12037774
000150 fe 67 05 bd 86 a7 51 bc 00 76 88 bd e7 03 9c bd
       -0.032569878 -0.012796288 -0.06663132 -0.07617932
000160 1e 87 9e 3c 13 ae 22 3c 99 2c 67 bd 90 e9 ab bd
       0.019351538 0.009929198 -0.056439016 -0.08394158
000170 55 2c ea 3c d9 69 f4 bb 1c 40 03 3d 34 2c bb bc
       0.028585592 -0.007458907 0.03204356 -0.022848226
000180 0b 66 b6 bc 00 0f 6e 39 14 e8 11 3b 27 71 95 bd
       -0.022265455 0.00022703037 0.0022263573 -0.07296973
000190 74 93 8b 3c f0 42 0e bd ea 09 04 bd 3d 17 1d bd
       0.017038085 -0.034731805 -0.032236017 -0.03835224
0001a0 d5 a4 9b bc b5 6f a9 bd 67 98 b5 bd 7b fe 90 bd
       -0.018999496 -0.082732596 -0.08866959 -0.07079788
0001b0 3c 93 2f bc 5f 5a 7c bd c5 29 4e 3c 61 f7 bb bc
       -0.010716256 -0.061609622 0.012583201 -0.022945108
0001c0 0b 13 83 3c 35 67 42 bd 5e c4 25 bc a8 94 6b bd
       0.016000291 -0.047461707 -0.010117618 -0.057514817
0001d0 ca 34 6e bd 4d eb 44 bd 80 53 89 bc 03 94 b4 bd
       -0.058155812 -0.048075963 -0.016763449 -0.088172935
0001e0 a4 37 12 3c cc 4b 9b bd e4 5c 49 bc f8 14 38 3c
       0.008924399 -0.075828165 -0.012290213 0.011235468
0001f0 5a 78 8c bd b2 7e 43 3c 1f b0 5f bd c4 78 a4 3d
       -0.06858893 0.011932062 -0.05461132 0.08030847
000200 e4 38 29 3d ca 1e 04 be 04 d5 3c bc 06 75 62 bd
       0.04131402 -0.1290237 -0.011525396 -0.055287383
000210 da dc ec 3a c1 ba 4d bd 75 9e 36 bc 02 3a 6c bd
       0.001807119 -0.05022693 -0.011146178 -0.057672508
000220 7d a5 3c bd 97 af 9b bd 08 d6 a3 bd 12 30 85 bd
       -0.04605626 -0.076018505 -0.079998076 -0.06503309
000230 31 a9 80 3c 2c 92 8c bd 58 86 b2 bc 6f 7f 2f bd
       0.015705677 -0.068638176 -0.021792576 -0.04284614
000240 e2 23 23 bc f9 40 83 3c fa 57 52 bd 1a f4 2d bd
       -0.009957286 0.016022192 -0.051353432 -0.04246912
000250 3d a8 00 bd 9d c0 12 bd 26 43 82 3a e9 9a 8d 3c
       -0.031410445 -0.03582822 0.0009938225 0.017285781
000260 73 bf 4f bd 44 01 2e 3d 88 60 15 bd f0 26 01 bd
       -0.05071969 0.042481676 -0.036469012 -0.031531274
000270 d5 40 5c bd 67 0d 98 bd 50 85 8e 3a 15 c7 05 bd
       -0.053772766 -0.07424431 0.001087347 -0.032660563
000280 ab c2 8f bd 1f c2 02 bd 01 ad 74 bd f1 4e 60 bd
       -0.07019552 -0.03192341 -0.059735302 -0.054762784
000290 14 79 46 bd 1a 9a 62 bd 8c 08 b2 bd 17 f1 34 bd
       -0.048455313 -0.055322744 -0.086930364 -0.044175234
0002a0 bb 14 4c bd bd 7a 6a bd 9d 4f 9d bd c5 a6 78 bd
       -0.049824458 -0.05724596 -0.07681201 -0.06070592
0002b0 13 e9 49 bc 4e d3 b1 bd b6 f8 ec bc 76 97 ec bc
       -0.012323636 -0.08682881 -0.028927188 -0.028880816
0002c0 d3 fd 87 bc d4 2a 22 bd 73 dd 78 3c de f4 5e bd
       -0.016600525 -0.039591625 0.015189516 -0.054432742
0002d0 ce f5 cb bd 55 ca d5 bc 98 1c 85 bd c7 51 c7 bb
       -0.09958993 -0.026097456 -0.064995944 -0.0060827467
0002e0 50 c0 80 3b 53 7d 84 bd d4 f7 06 3c f2 4a a7 bc
       0.0039291754 -0.06469216 0.008237798 -0.020421479
0002f0 d5 7e e1 3c dd 86 11 3d 6d dd 24 bd 73 88 17 bd
       0.027526299 0.035529006 -0.04025023 -0.036995362
000300 1b fc f2 bc f5 f5 ab bd 3c e1 74 bd 3b 7e 90 bc
       -0.029661229 -0.08396522 -0.059785113 -0.017638316
000310 64 f3 05 3b fd 77 b1 bd ed 9b 1d 3d 3f 44 5f ba
       0.0020439262 -0.08665464 0.03847878 -0.00085169444
000320 52 e0 37 bd a4 77 95 bd 48 5a 9a bd c2 7b 2d 3c
       -0.044891663 -0.0729821 -0.07536751 0.010588588
000330 d7 ec e9 bc 40 27 bd ba ab 02 59 bd c2 c4 12 bc
       -0.028555317 -0.0014431253 -0.05298106 -0.0089580435
000340 3c 20 50 bd 53 5d 6d 3c cb 61 9e bd 70 90 4f bd
       -0.05081199 0.014487582 -0.07733496 -0.050674856
000350 3d 51 a4 bd 6b 47 7b 3b e6 18 c6 bc 8a 3f 16 bd
       -0.080233075 0.003834213 -0.024181794 -0.03668169
000360 c8 f5 f9 bc 66 90 0f bd 79 80 9e bc 01 76 1e bd
       -0.030512705 -0.03504982 -0.01934837 -0.038686756
000370 15 38 ac bd b6 b7 35 bc 3c 32 d9 bd 0d ef 39 3c
       -0.08409134 -0.011091163 -0.106052846 0.011348498
000380 9c 2c d0 bd 71 92 9e bd b9 9f ae bd 2d 54 3b bd
       -0.101647586 -0.07742775 -0.085265584 -0.045734573
000390 ab d3 b5 bb b9 84 54 bd ef d2 d5 3b cd fa 9a 3c
       -0.0055489144 -0.051884387 0.0065253894 0.01891842
0003a0 0a 17 07 bd 97 19 d2 bd 8e d8 1d bd 05 f6 82 bd
       -0.032980956 -0.10258787 -0.0385366 -0.06394581
0003b0 4f 71 b7 3c 54 19 c6 bd 34 64 e8 bc 73 f3 1e bd
       0.022392897 -0.096728 -0.028368093 -0.03880639
0003c0 e2 93 74 3c 62 b0 db bc 33 3d 88 bd 64 5f 16 3b
       0.014927836 -0.026817504 -0.06652298 0.002294504
0003d0 d0 ad cc bc b7 4a b7 bd ff 57 c0 bc 37 9a 30 3d
       -0.024985224 -0.089497976 -0.02347946 0.04311582
0003e0 36 98 1a bd c4 60 74 bd 09 f7 7e bd c6 c7 4e bd
       -0.037742816 -0.059662595 -0.06224731 -0.050483488
0003f0 30 c0 ee 3c b3 99 1b 3c a5 99 a1 3b 74 0c 60 bd
       0.029144377 0.009497094 0.004931646 -0.054699376

linear2.bias f4 [3]
000000 e7 d5 50 bd 10 8e 3e bd d7 f4 25 be
       -0.050985243 -0.0465222 -0.1620668
